{"format": "layers-model", "generatedBy": "keras v3.7.0", "convertedBy": "TensorFlow.js Converter v4.22.0", "modelTopology": {"keras_version": "3.7.0", "backend": "tensorflow", "model_config": {"class_name": "Functional", "config": {"name": "functional", "trainable": true, "layers": [{"class_name": "InputLayer", "config": {"batch_shape": [null, 23], "dtype": "float32", "sparse": false, "name": "input_layer"}, "name": "input_layer", "inbound_nodes": []}, {"class_name": "InputLayer", "config": {"batch_shape": [null, 74], "dtype": "float32", "sparse": false, "name": "input_layer_1"}, "name": "input_layer_1", "inbound_nodes": []}, {"class_name": "Embedding", "config": {"name": "embedding", "trainable": true, "dtype": {"module": "keras", "class_name": "DTypePolicy", "config": {"name": "float32"}, "registered_name": null}, "input_dim": 9372, "output_dim": 200, "embeddings_initializer": {"module": "keras.initializers", "class_name": "RandomUniform", "config": {"seed": null, "minval": -0.05, "maxval": 0.05}, "registered_name": null}, "embeddings_regularizer": null, "activity_regularizer": null, "embeddings_constraint": null, "mask_zero": true}, "name": "embedding", "inbound_nodes": [{"args": [{"class_name": "__keras_tensor__", "config": {"shape": [null, 23], "dtype": "float32", "keras_history": ["input_layer", 0, 0]}}], "kwargs": {}}]}, {"class_name": "NotEqual", "config": {"name": "not_equal"}, "name": "not_equal", "inbound_nodes": [{"args": [{"class_name": "__keras_tensor__", "config": {"shape": [null, 23], "dtype": "float32", "keras_history": ["input_layer", 0, 0]}}, 0], "kwargs": {}}]}, {"class_name": "Embedding", "config": {"name": "embedding_1", "trainable": true, "dtype": {"module": "keras", "class_name": "DTypePolicy", "config": {"name": "float32"}, "registered_name": null}, "input_dim": 9372, "output_dim": 200, "embeddings_initializer": {"module": "keras.initializers", "class_name": "RandomUniform", "config": {"seed": null, "minval": -0.05, "maxval": 0.05}, "registered_name": null}, "embeddings_regularizer": null, "activity_regularizer": null, "embeddings_constraint": null, "mask_zero": true}, "name": "embedding_1", "inbound_nodes": [{"args": [{"class_name": "__keras_tensor__", "config": {"shape": [null, 74], "dtype": "float32", "keras_history": ["input_layer_1", 0, 0]}}], "kwargs": {}}]}, {"class_name": "LSTM", "config": {"name": "lstm", "trainable": true, "dtype": {"module": "keras", "class_name": "DTypePolicy", "config": {"name": "float32"}, "registered_name": null}, "return_sequences": false, "return_state": true, "go_backwards": false, "stateful": false, "unroll": false, "zero_output_for_mask": false, "units": 200, "activation": "tanh", "recurrent_activation": "sigmoid", "use_bias": true, "kernel_initializer": {"module": "keras.initializers", "class_name": "GlorotUniform", "config": {"seed": null}, "registered_name": null}, "recurrent_initializer": {"module": "keras.initializers", "class_name": "Orthogonal", "config": {"seed": null, "gain": 1.0}, "registered_name": null}, "bias_initializer": {"module": "keras.initializers", "class_name": "Zeros", "config": {}, "registered_name": null}, "unit_forget_bias": true, "kernel_regularizer": null, "recurrent_regularizer": null, "bias_regularizer": null, "activity_regularizer": null, "kernel_constraint": null, "recurrent_constraint": null, "bias_constraint": null, "dropout": 0.0, "recurrent_dropout": 0.0, "seed": null}, "name": "lstm", "inbound_nodes": [{"args": [{"class_name": "__keras_tensor__", "config": {"shape": [null, 23, 200], "dtype": "float32", "keras_history": ["embedding", 0, 0]}}], "kwargs": {"training": false, "mask": {"class_name": "__keras_tensor__", "config": {"shape": [null, 23], "dtype": "bool", "keras_history": ["not_equal", 0, 0]}}}}]}, {"class_name": "LSTM", "config": {"name": "lstm_1", "trainable": true, "dtype": {"module": "keras", "class_name": "DTypePolicy", "config": {"name": "float32"}, "registered_name": null}, "return_sequences": true, "return_state": true, "go_backwards": false, "stateful": false, "unroll": false, "zero_output_for_mask": false, "units": 200, "activation": "tanh", "recurrent_activation": "sigmoid", "use_bias": true, "kernel_initializer": {"module": "keras.initializers", "class_name": "GlorotUniform", "config": {"seed": null}, "registered_name": null}, "recurrent_initializer": {"module": "keras.initializers", "class_name": "Orthogonal", "config": {"seed": null, "gain": 1.0}, "registered_name": null}, "bias_initializer": {"module": "keras.initializers", "class_name": "Zeros", "config": {}, "registered_name": null}, "unit_forget_bias": true, "kernel_regularizer": null, "recurrent_regularizer": null, "bias_regularizer": null, "activity_regularizer": null, "kernel_constraint": null, "recurrent_constraint": null, "bias_constraint": null, "dropout": 0.0, "recurrent_dropout": 0.0, "seed": null}, "name": "lstm_1", "inbound_nodes": [{"args": [{"class_name": "__keras_tensor__", "config": {"shape": [null, 74, 200], "dtype": "float32", "keras_history": ["embedding_1", 0, 0]}}], "kwargs": {"initial_state": [{"class_name": "__keras_tensor__", "config": {"shape": [null, 200], "dtype": "float32", "keras_history": ["lstm", 0, 1]}}, {"class_name": "__keras_tensor__", "config": {"shape": [null, 200], "dtype": "float32", "keras_history": ["lstm", 0, 2]}}], "training": false}}]}, {"class_name": "Dense", "config": {"name": "dense", "trainable": true, "dtype": {"module": "keras", "class_name": "DTypePolicy", "config": {"name": "float32"}, "registered_name": null}, "units": 9372, "activation": "softmax", "use_bias": true, "kernel_initializer": {"module": "keras.initializers", "class_name": "GlorotUniform", "config": {"seed": null}, "registered_name": null}, "bias_initializer": {"module": "keras.initializers", "class_name": "Zeros", "config": {}, "registered_name": null}, "kernel_regularizer": null, "bias_regularizer": null, "kernel_constraint": null, "bias_constraint": null}, "name": "dense", "inbound_nodes": [{"args": [{"class_name": "__keras_tensor__", "config": {"shape": [null, 74, 200], "dtype": "float32", "keras_history": ["lstm_1", 0, 0]}}], "kwargs": {}}]}], "input_layers": [["input_layer", 0, 0], ["input_layer_1", 0, 0]], "output_layers": [["dense", 0, 0]]}}, "training_config": {"loss": "categorical_crossentropy", "loss_weights": null, "metrics": null, "weighted_metrics": null, "run_eagerly": false, "steps_per_execution": 1, "jit_compile": false, "optimizer_config": {"class_name": "RMSprop", "config": {"name": "rmsprop", "learning_rate": 0.0010000000474974513, "weight_decay": null, "clipnorm": null, "global_clipnorm": null, "clipvalue": null, "use_ema": false, "ema_momentum": 0.99, "ema_overwrite_frequency": null, "loss_scale_factor": null, "gradient_accumulation_steps": null, "rho": 0.9, "momentum": 0.0, "epsilon": 1e-07, "centered": false}}}}, "weightsManifest": [{"paths": ["group1-shard1of6.bin", "group1-shard2of6.bin", "group1-shard3of6.bin", "group1-shard4of6.bin", "group1-shard5of6.bin", "group1-shard6of6.bin"], "weights": [{"name": "dense/kernel", "shape": [200, 9372], "dtype": "float32"}, {"name": "dense/bias", "shape": [9372], "dtype": "float32"}, {"name": "embedding/embeddings", "shape": [9372, 200], "dtype": "float32"}, {"name": "embedding_1/embeddings", "shape": [9372, 200], "dtype": "float32"}, {"name": "lstm/lstm_cell/kernel", "shape": [200, 800], "dtype": "float32"}, {"name": "lstm/lstm_cell/recurrent_kernel", "shape": [200, 800], "dtype": "float32"}, {"name": "lstm/lstm_cell/bias", "shape": [800], "dtype": "float32"}, {"name": "lstm_1/lstm_cell/kernel", "shape": [200, 800], "dtype": "float32"}, {"name": "lstm_1/lstm_cell/recurrent_kernel", "shape": [200, 800], "dtype": "float32"}, {"name": "lstm_1/lstm_cell/bias", "shape": [800], "dtype": "float32"}]}]}